RecognizeSN_flask/model/mnist.pth (torch, 180679 bytes, 10 tensors)

conv1.weight f4 [6, 1, 5, 5]
-0.07941473 0.18879892 -0.047812205 0.007918318 -0.10006062 -0.09683126 -0.17435198 0.11914416
-0.12560047 0.0056135217 0.016650828 -0.14032008 -0.2058748 -0.17959645 -0.14891885 -0.08819769
-0.14428283 0.0363907 -0.08704233 0.29448423 -0.21395536 0.03179191 0.22527799 0.059520632
0.18574196 0.2293586 0.44614688 0.7758038 0.4753976 -0.20011315 0.21471217 0.3570779
0.9867074 0.97462374 0.46781012 -0.084833875 0.29760337 0.99999297 1.0285438 0.382776
-0.40615228 -0.084910385 0.53821594 0.5828012 0.1714846 -0.17368041 -0.068547636 0.07258721
-0.085029945 -0.043004982 0.17198285 0.13850002 -0.1340327 -0.2208501 -0.2477358 0.35127395
0.11624426 -0.23626503 -0.15204746 -0.08318919 0.08151185 0.31674725 -0.19244735 0.032749355
0.25111726 0.23160407 0.14539479 0.09075243 -0.03743343 0.15899432 0.2987593 -0.015301165
-0.16074178 -0.05405711 -0.1322466 -0.18968527 0.15774854 0.030931992 0.10048743 0.13123953
0.118908495 -0.08428718 -0.15579952 0.026655948 -0.062395643 -0.06348947 0.06907297 0.06755051
-0.16233289 0.010662681 -0.18842746 -0.021571847 -0.18795772 -0.07906449 0.22065979 -0.058774088
-0.123228446 0.067566626 0.08987257 -0.1286454 -0.0040634726 -0.061348654 0.23197219 0.2331977
0.46240106 0.09773453 0.37068805 0.31811804 0.7780986 0.62545925 0.2005949 0.76154166
0.87536293 0.98753285 0.5658656 0.25987685 0.6414456 0.72024244 0.70436704 0.112082586
0.124785826 0.013226006 0.27818623 0.19067393 -0.22563635 0.21334879 -0.1147489 0.014050198
-0.108455956 -0.12679365 -0.011688867 0.07967236 -0.16359544 -0.058830358 -0.18603913 -0.14686142
-0.26488042 -0.30414897 -0.10395652 -0.076293856 -0.18836686 -0.2382155 0.121451944 0.25306308
0.23696326 -0.110521324 0.3359254 0.34630808 0.11485678 -0.034031022
00000000: 31a4 a2bd 8154 413e bbd6 43bd d5bb 013c
00000010: 95ec ccbd 784f c6bd 5389 32be da01 f43d
00000020: 699d 00be a2f1 b73b 5167 883c 11b0 0fbe
00000030: d8d0 52be 22e8 37be 2f7e 18be fea0 b4bd
00000040: e1be 13be 6a0e 153d 4043 b2bd a3c6 963e
00000050: 1d17 5bbe 3c38 023d 46af 663e e8cb 733d
00000060: 2433 3e3e fbdc 6a3e 5d6d e43e 149b 463f
00000070: 5067 f33e 76ea 4cbe 82dd 5b3e ead2 b63e
00000080: db98 7c3f f180 793f cf84 ef3e 62bd adbd
00000090: 785f 983e 8aff 7f3f 53a7 833f 37fb c33e
000000a0: 31f3 cfbe 7fe5 adbd 85c8 093f 7632 153f
000000b0: a999 2f3e 47d9 31be b462 8cbd 9aa8 943d
000000c0: 2e24 aebd fe25 30bd 461c 303e f3d2 0d3e
000000d0: de3f 09be 8726 62be 74ae 7dbe 2eda b33e
000000e0: 7811 ee3d 76ef 71be 54b2 1bbe 185f aabd
000000f0: afef a63d b22c a23e eb10 45be 3024 063d
00000100: 7192 803e 9e29 6d3e 5fe2 143e 69dc b93d
00000110: cc53 19bd 68cf 223e fbf6 983e bdb1 7abc
00000120: 7e99 24be fd6a 5dbd a76b 07be db3c 42be
00000130: d588 213e 1765 fd3c 5bcc cd3d a863 063e
00000140: 4c86 f33d c29e acbd e989 1fbe 935d da3c
00000150: 9392 7fbd c406 82bd 2176 8d3d ec57 8a3d
00000160: 983a 26be 87b2 2e3c 21f3 40be 71b7 b0bc
00000170: fd77 40be 90ec a1bd a4f4 613e 19bd 70bd
00000180: 325f fcbd 5f60 8a3d 1c0f b83d 9fbb 03be
00000190: e126 85bb ba48 7bbd 1e8a 6d3e 61cb 6e3e
000001a0: d5bf ec3e 0b29 c83d d3ca bd3e 5ee0 a23e
000001b0: 7831 473f 191e 203f c068 4d3e 65f4 423f
000001c0: c917 603f f4ce 7c3f 91dc 103f 940e 853e
000001d0: c735 243f cf61 383f 6651 343f 8e8b e53d
000001e0: b68f ff3d e4b1 583c 6d6e 8e3e 0740 433e
000001f0: 370d 67be 1b78 5a3e 7901 ebbd cd32 663c
00000200: 281e debd 32d6 01be a982 3fbc 432b a33d
00000210: 9085 27be 1af8 70bd 0b81 3ebe d762 16be
00000220: 689e 87be 6ab9 9bbe 28e7 d4bd f43f 9cbd
00000230: 3ee3 40be c4ee 73be ccbb f83d 7c91 813e
00000240: 7fa6 723e 0159 e2bd 6afe ab3e 4b4f b13e
00000250: 083a eb3d 1d64 0bbd

conv1.bias f4 [6]
-0.021320919 9.784846e-06 0.0066401963 -0.1459957 2.2009651e-06 0.36611184
00000000: 35a9 aebc 9829 2437 0196 d93b e67f 15be
00000010: 4bb4 1336 0373 bb3e

conv2.weight f4 [16, 6, 5, 5]
-0.083770245 -0.042490818 0.0028762752 -0.046151947 -0.007327942 -0.02575186 0.021117298 0.04855041
0.06580815 0.004924299 0.077982135 0.05012013 -0.072438836 -0.050213646 -0.041319527 -0.027470779
0.065042 0.092685275 0.07418475 -0.07555068 0.0775874 0.07407616 -0.014590924 0.04946852
0.018305711 -0.008597377 -0.08858223 -0.14790283 -0.0297084 0.04299108 0.07765663 0.23508474
0.31638032 0.20609666 0.112307854 -0.08524881 -0.01909111 0.087177746 0.02686466 -0.14497584
-0.11539253 -0.2401446 -0.3593899 -0.3192026 -0.30977938 0.14844047 0.17003715 0.009415553
0.015218212 0.053654574 0.029783564 0.091965996 0.117932305 0.08391541 -0.008480357 0.10517095
0.124477275 0.021306038 0.05151123 -0.019418651 -0.034687657 0.0040084934 -0.104851924 -0.07143166
0.017726598 0.0499157 0.05740288 -0.010592546 -0.108579025 -0.05801156 0.040420894 0.007389373
0.06323399 -0.087531306 0.034400754 -0.012363114 0.07046829 -0.026020898 0.026214495 0.07220944
0.029976673 -0.04393319 -0.029276151 0.03116827 -0.017383391 -0.023096846 0.053677324 -0.020038236
0.01672528 -0.031826314 -0.033271674 0.034559883 -0.02164727 -0.06815968 -0.06870556 0.06878375
0.0069328127 0.049842846 -0.043922625 0.04356579 -0.091767475 -0.107061654 -0.052690633 0.09492952
0.086550884 0.10455282 0.17960116 0.29421037 0.33117846 0.1831205 -0.040496334 -0.10866051
-0.095028505 -0.10758173 -0.19067968 -0.107618 -0.09310752 -0.18287033 -0.3308695 -0.14723398
0.08528202 0.13099043 0.0011089197 0.018457685 -0.09141047 -0.049148228 0.11276717 0.06439205
0.1373585 0.047133174 -0.06539475 -0.054073583 -0.014420836 -0.0716056 -0.047820278 0.056730155
0.06836234 0.018839817 0.025994537 -0.021514587 0.09762277 0.08756618 0.006596271 0.093938775
0.05822725 0.039559733 -0.04849183 -0.060262375 0.0045734546 0.016052129 -0.0006537105 -0.048073217
-0.049884968 -0.007408553 -0.010652334 0.009937172 -0.019625772 0.042544506 -0.023098512 -0.074931584
-0.041214615 -0.08252276 -0.05864273 -0.07838579 -0.00070453435 -0.018921362 -0.02451633 -0.07103767
0.06081834 -0.015307984 -0.012429087 -0.02213278 0.084008 0.044848148 -0.026435131 0.06276137
0.19881861 0.00645312 0.12092179 -0.0011997855 -0.016204936 0.08755566 0.06956114 0.13223258
0.010891183 -0.19886072 -0.14425234 -0.068358004 0.11948038 -0.037081998 -0.0131234275 -0.17807062
-0.16183247 0.18227997 0.20683798 0.06838807 -0.1122752 -0.1337532 -0.10752964 0.081070386
0.046412665 -0.0105051305 -0.0081573315 0.039647713 0.07859394 -0.013886773 -0.041032888 0.024482787
-0.043381967 0.08417541 -0.027630728 -0.07025268 -0.017025681 -0.07752672 -0.0023429194 -0.019151295
0.04731344 0.006687442 0.013298742 0.10788297 0.030855937 -0.07557209 -0.023339981 0.046144612
-0.05417935 0.00609547 -0.034163326 -0.06966043 0.006902736 0.025831776 0.008611301 -0.005091103
0.034289908 0.010000339 -0.03377808 -0.0167562 0.07385549 0.022690093 0.07901351 0.04047418
-0.043410998 -0.05297332 0.05936319 -0.06384699 0.030640116 0.05204885 0.039867066 -0.07796504
-0.07915465 0.07602935 0.058599103 0.10752834 0.15349682 0.20772046 0.14305633 -0.044361494
00000000: bc8f abbd da0a 2ebd e47f 3c3b d309 3dbd
00000010: 3c1f f0bb 91f5 d2bc 2ffe ac3c cbdc 463d
00000020: 6cc6 863d 045c a13b 19b5 9f3d c44a 4d3d
00000030: d05a 94bd d3ac 4dbd aa3e 29bd 660a e1bc
00000040: bd34 853d c7d1 bd3d 2dee 973d 51ba 9abd
00000050: 25e6 9e3d 3eb5 973d c50e 6fbc 819f 4a3d
00000060: dcf5 953c 03dc 0cbc 9a6a b5bd d773 17be
00000070: 085f f3bc 6a17 303d 700a 9f3d 0eba 703e
00000080: 9afc a13e 010b 533e a901 e63d ee96 aebd
00000090: f664 9cbc 3f8a b23d 4713 dc3c 8c74 14be
000000a0: eb52 ecbd 77e8 75be f401 b8be 866e a3be
000000b0: 679b 9ebe c700 183e 381e 2e3e b143 1a3c
000000c0: cf55 793c e6c4 5b3d a9fc f33c ab58 bc3d
000000d0: 7e86 f13d d8db ab3d 32f1 0abc de63 d73d
000000e0: f1ed fe3d 008a ae3c 71fd 523d dd13 9fbc
000000f0: a514 0ebd ae59 833b 9bbc d6bd c34a 92bd
00000100: 5f37 913c 6874 4c3d 481f 6b3d 5c8c 2dbc
00000110: ae5e debd 889d 6dbd 6190 253d 8e22 f23b
00000120: d280 813d 9d43 b3bd cee7 0c3d a98e 4abc
00000130: ae51 903d c729 d5bc c8bf d63c 8be2 933d
00000140: a491 f53c 4af3 33bd 8ad4 efbc 9a54 ff3c
00000150: 9d67 8ebc 9935 bdbc c1dc 5b3d 3a27 a4bc
00000160: 7403 893c 4f5c 02bd e147 08bd aa8e 0d3d
00000170: 9e55 b1bc 4d97 8bbd 80b5 8cbd 7fde 8c3d
00000180: a62c e33b 0328 4c3d 36e8 33bd 0b72 323d
00000190: 96f0 bbbd 2443 dbbd 22d2 57bd 686a c23d
000001a0: 9741 b13d ca1f d63d 5ee9 373e bea2 963e
000001b0: 3990 a93e f183 3b3e 7cdf 25bd 6789 debd
000001c0: 4e9e c2bd cf53 dcbd 8941 43be d366 dcbd
000001d0: 28af bebd 5c42 3bbe ba67 a9be 81c4 16be
000001e0: 57a8 ae3d 5b22 063e 2c59 913a 9234 973c
000001f0: 6a35 bbbd a74f 49bd 79f2 e63d fbdf 833d
00000200: b5a7 0c3e b70e 413d afed 85bd 437c 5dbd
00000210: 5f45 6cbc f5a5 92bd 32df 43bd e15d 683d
00000220: 8e01 8c3d f655 9a3c 7ff2 d43c 5c3f b0bc
00000230: 72ee c73d e655 b33d 8825 d83b f962 c03d
00000240: b27f 6e3d 6309 223d 5e9f 46bd aed5 76bd
00000250: ebdc 953b c17f 833c c55d 2bba 6ce8 44bd
00000260: 2e54 4cbd 72c3 f2bb 2187 2ebc 85cf 223c
00000270: 3ac6 a0bc 2643 2e3d 1739 bdbc bb75 99bd
00000280: a8d0 28bd b101 a9bd 5c33 70bd bb88 a0bd
00000290: 80b0 38ba f900 9bbc 78d6 c8bc 337c 91bd
000002a0: a71c 793d 57ce 7abc 5fa3 4bbc ce4f b5bc
000002b0: 630c ac3d b1b2 373d 7d8e d8bc 0889 803d
000002c0: 1b97 4b3e b274 d33b d8a5 f73d 1f42 9dba
000002d0: 37c0 84bc 6250 b33d 1276 8e3d fa67 073e
000002e0: ef70 323c 25a2 4bbe e3b6 13be 48ff 8bbd
000002f0: 21b2 f43d 4be3 17bd a503 57bc 2558 36be
00000300: 69b7 25be 9aa7 3a3e 56cd 533e 0b0f 8c3d
00000310: 8af0 e5bd 99f6 08be 8038 dcbd 3b08 a63d
00000320: 351b 3e3d b61d 2cbc 54a6 05bc a465 223d
00000330: dcf5 a03d 5985 63bc 1a12 28bd 2090 c83c
00000340: 4ab1 31bd 2864 ac3d d659 e2bc a3e0 8fbd
00000350: 7179 8bbc 54c6 9ebd aa8b 19bb 2de3 9cbc
00000360: bdcb 413d 5422 db3b f7e2 593c bff1 dc3d
00000370: 97c5 fc3c 8ac5 9abd 7d33 bfbc 2202 3d3d
00000380: 2beb 5dbd 82bc c73b d8ee 0bbd 21aa 8ebd
00000390: 5930 e23b 299d d33c 6a16 0d3c 44d3 a6bb
000003a0: 9373 0c3d 76d8 233c e25a 0abd 4c44 89bc
000003b0: 8c41 973d 93e0 b93c d6d1 a13d 41c8 253d
000003c0: bbcf 31bd 8dfa 58bd d126 733d 36c2 82bd
000003d0: fb00 fb3c 2d31 553d a64b 233d 23ac 9fbd
000003e0: d51b a2bd 47b5 9b3d 9d05 703d d137 dc3d
000003f0: 452e 1d3e acb4 543e 5c7d 123e 66b4 35bd

conv2.bias f4 [16]
0.10877688 -0.051072944 0.03665872 0.060002133 -0.021388339 -0.013443679 -0.10661342 -0.03697072
-0.090199456 -0.106513545 -0.07939031 0.004150581 0.011211037 -0.08396216 -0.06651386 0.09010704
00000000: 6ac6 de3d dd31 51bd 7427 163d ccc4 753d
00000010: 9936 afbc e042 5cbc 2358 dabd 9c6e 17bd
00000020: 7eba b8bd c623 dabd 6397 a2bd 9901 883b
00000030: 7fae 373c 5af4 abbd 6b38 88bd 0a8a b83d

fc1.weight f4 [120, 256]
0.00051253376 0.06923921 0.08217419 0.008821203 0.089260355 0.072801076 -0.043075826 -0.086052276
0.0027032283 -0.0047894656 0.0019200313 0.017353253 -0.009518614 0.112303 0.02336932 0.055190217
-0.038953476 0.022607306 0.08745621 0.021910876 0.013663006 -0.014404611 0.02206343 0.049026877
-0.015249621 -0.048158363 -0.054002173 -0.0010956815 0.09940977 -0.049689274 0.06350714 -0.0016519094
0.045669332 0.12380403 -0.02841799 -0.006989597 0.054981917 -0.030566825 -0.06339402 -0.014960479
-0.09098512 -0.030866126 0.07062007 0.062367655 0.03444606 -0.026818534 0.04102674 0.118429735
0.036933653 0.0012749549 0.07614184 0.018939916 0.07975773 0.036459334 0.0037970776 -0.010652795
-0.030764617 -0.044907406 0.00081812206 0.06960288 -0.053856827 -0.023234913 -0.06105458 0.05451993
-0.09208311 -0.008757593 0.033405446 0.07120912 -0.021172559 0.019880699 0.012404673 0.06043308
0.025424013 -0.0827075 -0.016076285 -0.007171852 0.02025124 -0.0018624088 -0.026668247 0.069754116
-0.049837537 0.10845053 0.08956815 -0.010647359 0.10918364 -0.046468597 -0.035020184 -0.042054825
-0.0800277 -0.10600952 0.0076066116 0.11539626 -0.06296565 0.037116274 0.072118886 -0.0022303301
0.0854938 0.054768287 0.0057276124 0.01802507 0.025796924 -0.02382842 0.09037423 -0.09432396
-0.11950622 0.061410997 -0.0027787776 -0.09384865 0.010383748 0.14960901 0.056623787 -0.011340721
-0.0060431547 0.044604152 -0.027688026 -0.03523247 -0.012889602 -0.024917576 -0.06942334 0.045098923
0.06621712 -0.058161587 0.052704196 -0.005168333 0.04695397 -0.013158302 0.032017287 0.023984302
-0.026825957 -0.04182571 -0.088532485 0.015744356 -0.009656173 0.0433476 -0.029850863 -0.0021967967
-0.0071141147 -0.02999929 0.03800684 -0.035421222 -0.009450419 0.056352936 0.064761445 -0.0029824576
0.045651786 -0.013125574 -0.0062414138 -0.0018580575 -0.029617686 -0.002768049 0.03498139 -0.01721728
-0.002662553 -0.049473815 -0.04869543 -0.008492253 0.08523646 0.021448383 -0.0017083498 -0.004846162
0.013793953 -0.03498197 -0.033232514 -0.01798615 -0.11339467 0.025758969 -0.03652973 -0.05632556
-0.030128043 0.037631843 -0.04369486 0.014359504 0.08517042 0.093702845 0.045687884 0.0881835
0.009140965 -0.05662236 0.053574845 0.045348406 0.0039209146 -0.031234372 0.028076265 0.011743554
0.06554026 0.024218116 0.0067144837 0.038194034 -0.024774672 -0.050449915 -0.059491698 -0.049333032
-0.026212199 0.01392706 -0.06881331 -0.014703414 0.048502795 -0.028599579 -0.019657144 -0.020282239
0.0028483297 0.04193906 0.042310093 -0.014550076 0.046230342 -0.05190293 -0.033976894 -0.06642973
0.041509047 -0.0425113 -0.07277918 -0.1899392 -0.0019070581 -0.046263024 -0.013878432 -0.1334675
0.09616826 0.055118464 0.080962166 0.032315407 0.014367352 -0.019954408 -0.008137531 0.03669153
0.047911424 0.00715932 -0.10495027 -0.06767206 -0.047879063 -0.047933344 0.031394344 0.00054504006
0.032607898 0.08473714 -0.054393906 -0.03490714 0.04893517 -0.029550238 -0.043709796 -0.13743737
-0.047094986 0.060495228 -0.0028929226 -0.03712695 0.07017755 0.017484978 0.033821773 -0.08904092
0.021049619 0.008433238 -0.006681015 -0.0072622844 -0.010110851 0.07153078 0.074028455 0.10353386
00000000: 8f5b 063a 49cd 8d3d f14a a83d cf86 103c
00000010: 22ce b63d bb18 953d 4770 30bd 2d3c b0bd
00000020: a528 313b f3f0 9cbb 8fa9 fb3a 6928 8e3c
00000030: f6f3 1bbc 1eff e53d 0471 bf3c 230f 623d
00000040: ae8d 1fbd f532 b93c 3e1c b33d 707e b33c
00000050: cdda 5f3c 5101 6cbc 5ebe b43c 68d0 483d
00000060: 8cd9 79bc b441 45bd 6231 5dbd f89c 8fba
00000070: 5997 cb3d fb86 4bbd 0810 823d e284 d8ba
00000080: c40f 3b3d f88c fd3d d8cc e8bc fd08 e5bb
00000090: b834 613d 4767 fabc b9d4 81bd cc1c 75bc
000000a0: 6856 babd f5da fcbc 41a1 903d 3a75 7f3d
000000b0: 5017 0d3d 8bb2 dbbc a80b 283d 4a8b f23d
000000c0: be47 173d 631c a73a 41f0 9b3d e227 9b3c
000000d0: 0558 a33d 6256 153d 64d8 783b 1089 2ebc
000000e0: 1406 fcbc d4f0 37bd 3e77 563a f48b 8e3d
000000f0: fa98 5cbd 2557 bebc 5e14 7abd 4a50 5f3d
00000100: 1296 bcbd 027c 0fbc 26d4 083d 16d6 913d
00000110: 1372 adbc d9dc a23c f83c 4b3c ad88 773d
00000120: 0546 d03c 8d62 a9bd 6ab2 83bc db01 ebbb
00000130: eee5 a53c 121c f4ba 5e77 dabc 3fdb 8e3d
00000140: 7222 4cbd 501b de3d 826f b73d 4372 2ebc
00000150: ac9b df3d db55 3ebd 5371 0fbd ae41 2cbd
00000160: 90e5 a3bd 851b d9bd e240 f93b e054 ec3d
00000170: 22f4 80bd 3c07 183d 11b3 933d bb2a 12bb
00000180: 6017 af3d b654 603d b2ae bb3b 50a9 933c
00000190: 1254 d33c d233 c3bc 2016 b93d ec2c c1bd
000001a0: adbf f4bd 198a 7b3d 271c 36bb b933 c0bd
000001b0: 9920 2a3c 1b33 193e 58ee 673d 6ece 39bc
000001c0: a805 c6bb d8b2 363d 00d2 e2bc ec4f 10bd
000001d0: e92e 53bc f21f ccbc d32d 8ebd a6b9 383d
000001e0: d79c 873d d83a 6ebd 5be0 573d 1f5b a9bb
000001f0: ce52 403d eb95 57bc 8f24 033d ba7a c43c
00000200: 1cc2 dbbc 7051 2bbd 8550 b5bd 4ffa 803c
00000210: ed34 1ebc 418d 313d cc89 f4bc 22f8 0fbb
00000220: 851d e9bb 12c1 f5bc 0fad 1b3d d815 11bd
00000230: eed5 1abc 56d2 663d a6a1 843d 5675 43bb
00000240: 5efd 3a3d a60c 57bc c684 ccbb 108a f3ba
00000250: caa0 f2bc 2868 35bb a548 0f3d 410b 8dbc
00000260: 3a7e 2ebb 0ea5 4abd dc74 47bd 1723 0bbc
00000270: 7490 ae3d 85b4 af3c b5ea dfba 8ecc 9ebb
00000280: 0800 623c 4149 0fbd d11e 08bd b157 93bc
00000290: 773b e8bd 7904 d33c 33a0 15bd a1b5 66bd
000002a0: 16cf f6bc d923 1a3d 62f9 32bd 2044 6b3c
000002b0: d46d ae3d 47e7 bf3d 3823 3b3d 8d99 b43d
000002c0: fcc3 153c d9ec 67bd 4c71 5b3d 40bf 393d
000002d0: 047b 803b 3adf ffbc 3200 e63c 0968 403c
000002e0: f939 863d 1265 c63c 2c05 dc3b 5971 1c3d
000002f0: 41f4 cabc 92a4 4ebd 91ad 73bd 6f11 4abd
00000300: f7ba d6bc 532e 643c feed 8cbd 97e6 70bc
00000310: deaa 463d aa49 eabc 0508 a1bc f026 a6bc
00000320: 0bab 3a3b 4bc8 2b3d 594d 2d3d 7163 6ebc
00000330: 075c 3d3d 2b98 54bd 5b2b 0bbd 4f0c 88bd
00000340: 6405 2a3d 5420 2ebd 400d 95bd 6c7f 42be
00000350: 40f6 f9ba 4c7e 3dbd 5d62 63bc b4ab 08be
00000360: ddf3 c43d e6c3 613d 7ecf a53d 295d 043d
00000370: 0b65 6b3c 6d77 a3bc 4753 05bc dc49 163d
00000380: c53e 443d bb98 ea3b 2bf0 d6bd a697 8abd
00000390: d61c 44bd c155 44bd 5b97 003d 05e1 0e3a
000003a0: dc8f 053d aa8a ad3d 25cc 5ebd cafa 0ebd
000003b0: 3f70 483d 5713 f2bc 0b09 33bd 62bc 0cbe
000003c0: ace6 40bd d8c9 773d 3097 3dbb 6e12 18bd
000003d0: 3fb9 8f3d a83c 8f3c b388 0a3d 165b b6bd
000003e0: 4070 ac3c 902b 0a3c 6aec dabb 75f8 edbb
000003f0: fca7 25bc bb7e 923d 3b9c 973d 8f09 d43d

fc1.bias f4 [120]
0.06421157 0.071420856 -0.017805278 0.057646703 -0.055097435 0.038028218 0.047033824 -0.015610341
-0.007006941 0.072801046 -0.029756408 0.051927015 -0.02372679 0.015699167 -0.029538652 -0.04494767
-0.023728332 -0.008380828 0.04611502 0.02792459 -0.02901462 -0.036197532 -0.008196476 0.047142934
0.027685251 -0.01283127 -0.06466151 -0.03317112 -0.05327083 -0.05636492 -0.020222235 -0.017290661
-0.02141131 -0.005104851 -0.022998169 0.07249521 -0.011545936 -0.007003797 0.009909639 0.05846614
0.03787049 0.0016204541 0.009662227 -0.027508928 -0.024935957 0.05281929 0.060694106 0.011837408
0.0126972515 0.030774444 0.04892001 -0.027565667 -0.04062336 -0.0072173164 0.027410029 -0.008226611
0.039338123 -0.01000905 0.08192057 0.04322653 -0.0402538 0.049809188 0.025172852 0.02693621
0.08677821 0.00753606 -0.031801373 0.044505 -0.0014796429 0.063709706 0.033733178 0.007436067
0.003595795 0.032795582 0.040935535 -0.03945342 0.03728867 -0.05288138 0.045933187 -0.052113116
-0.0029263587 -0.007404327 -0.041044813 0.06085238 0.022355948 -0.022736715 -0.042467184 0.0728095
0.06780963 -0.0050399867 -0.0665284 0.00031846564 -0.016556736 0.037382673 0.031065457 0.032747366
0.036549125 0.025227033 -0.006998887 0.047162876 -0.050241254 -0.05052342 0.003479584 -0.011202565
0.082534276 -0.058460437 -0.043147158 0.039237913 -0.026674438 0.018829823 -0.013121547 -0.043193243
-0.031235814 0.0024043908 -0.023136416 0.04140591 -0.0004936658 -0.054822065 -0.019061249 0.08226571
00000000: 5b81 833d 1945 923d 60dc 91bc f31e 6c3d
00000010: d9ad 61bd 7ac3 1b3d 8aa6 403d 84c2 7fbc
00000020: 7b9a e5bb b718 953d b6c3 f3bc 6cb1 543d
00000030: af5e c2bc 8a9b 803c 0bfb f1bc 0c1b 38bd
00000040: eb61 c2bc be4f 09bc 1ae3 3c3d 1cc2 e43c
00000050: 12b0 edbc dd43 14bd 834a 06bc f318 413d
00000060: 2ecc e23c 3f3a 52bc 416d 84bd 71de 07bd
00000070: 8432 5abd e7de 66bd 1aa9 a5bc 25a5 8dbc
00000080: c666 afbc 9846 a7bb a866 bcbc 5e78 943d
00000090: 2a2b 3dbc 1c80 e5bb 0a5c 223c 317a 6f3d
000000a0: 161e 1b3d 6b65 d43a 514e 1e3c 675a e1bc
000000b0: 7e46 ccbc 0a59 583d 629a 783d b0f1 413c
000000c0: 2208 503c b01a fc3c 5960 483d 65d1 e1bc
000000d0: ae64 26bd 3d7f ecbb ff8a e03c e8c8 06bc
000000e0: 0321 213d 00fd 23bc f9c5 a73d 4d0e 313d
000000f0: 2be1 24bd b804 4c3d 4c37 ce3c 54a9 dc3c
00000100: c6b8 b13d 0ef1 f63b 2842 02bd e04a 363d
00000110: 94f0 c1ba 3c7a 823d cd2b 0a3d 40aa f33b
00000120: 6ea7 6b3b a954 063d 05ac 273d e999 21bd
00000130: 01bc 183d 259a 58bd 7024 3c3d 9074 55bd
00000140: 27c8 3fbb ff9f f2bb 9b1e 28bd 5840 793d
00000150: d223 b73c 5942 babc 12f2 2dbd 261d 953d
00000160: c6df 8a3d 7926 a5bb 0b40 88bd bcf7 a639
00000170: fea1 87bc 931e 193d fc7c fe3c 1a22 063d
00000180: 89b4 153d eca8 ce3c eb56 e5bb dc2d 413d
00000190: c6c9 4dbd a5f1 4ebd bb09 643b f78a 37bc
000001a0: bb07 a93d 3674 6fbd 13bb 30bd efb7 203d
000001b0: 5a84 dabc 0041 9a3c c2fb 56bc 66eb 30bd
000001c0: 40e2 ffbc fc92 1d3b 9588 bdbc 3e99 293d
000001d0: 5a69 01ba 1a8d 60bd 5626 9cbc ed7a a83d

fc2.weight f4 [84, 120]
0.023944868 -0.026119696 0.06449706 0.12046449 0.016925316 0.10991937 0.077258416 0.009112506
-0.10493154 0.020225184 -0.019023798 -0.025061976 0.07673338 0.035902686 0.026100038 -0.047834057
0.08064087 0.01351152 -0.061789315 -0.07852628 0.05039082 -0.07049144 0.051695973 -0.03184048
-0.069427624 -0.035848737 0.013584648 -0.026784612 0.03543174 0.062553175 0.026987031 -0.11960071
-0.08751597 0.040646322 0.06592397 0.068934746 0.04904124 -0.016195761 0.04071698 0.081600785
-0.04907852 -0.066632695 0.0355509 -0.07101275 -0.09490267 0.09096913 0.09724254 0.042099394
-0.008866853 0.12438577 -0.04815525 -0.08097397 -0.085838884 0.08127777 -0.0967891 -0.09172232
-0.013197744 -0.015915856 -0.05287711 0.11009219 -0.0041997223 -0.08362658 0.069023125 -0.048690416
0.040402424 -0.08719484 -0.00011077604 -0.015459023 -0.052925322 -0.08534247 -0.11047329 -0.04238617
0.08795962 0.012204119 0.08415349 0.014483442 -0.056125157 -0.013891904 0.10009986 0.06557424
0.08340075 0.008661729 -0.054715 0.06316985 -0.044299014 -0.03320225 -0.01503445 -0.10901339
0.039983124 0.0060787415 -0.013570457 0.00982972 -0.02877184 -0.064248756 -0.05787275 -0.036423713
-0.07375956 0.09327434 0.102977075 0.052534454 -0.00028139923 0.019513056 0.10788805 0.06818231
-0.06396108 0.020771122 -0.02205347 -0.05386928 -0.03560458 -0.08544273 0.035278015 0.0764637
0.0024926928 -0.020605559 -0.06330465 -0.04212183 -0.032176916 0.09680851 -0.09441778 0.045269053
-0.014468872 -0.002665318 -0.013053928 -0.07884258 -0.07543254 -0.07171298 0.07537004 -0.08550061
-0.01035178 -0.028110443 0.07783779 0.09287736 0.063175 -0.01873729 -0.067014284 -0.015539653
-0.018850574 -0.02209433 -0.0069306423 0.011324912 -0.042631917 0.017784372 0.012100836 -0.0011800992
-0.04703984 -0.019355265 0.08151584 -0.0020194475 0.043044273 0.008379639 -0.013874102 0.063884705
-0.0064070695 0.039733242 0.031316224 0.079513624 -0.07523998 0.016588436 -0.053744927 0.009238385
-0.05022417 -0.021312816 0.055686664 -0.06068432 -0.08950761 -0.020174265 0.07378503 0.06148337
-0.060725227 0.087250136 0.039247718 -0.05722604 -0.021698002 0.053822573 -0.021063337 -0.07106738
-0.07708909 0.028619964 -0.096756995 0.003290763 0.06403021 0.08260923 0.027868433 0.05838099
-0.07657565 0.06983324 -0.017273717 -0.09297777 0.0098343715 -0.08151876 0.060705997 -0.04022197
-0.040877357 -0.049211122 -0.022399751 -0.048090063 0.073154934 0.06685708 -0.084546335 -0.047668304
-0.039553434 0.049271755 -0.024748776 0.08289872 -0.060512424 0.00048599846 -0.08349203 0.032197557
0.008459538 0.023845376 -0.087440245 0.008645403 0.05587232 0.0039074356 0.054456238 0.043267146
0.04963406 -0.09268024 -0.041693784 -0.027642485 -0.029215138 -0.088020734 -0.014816298 0.07042517
0.027744364 -0.087576345 0.06949662 -0.08122282 0.07559137 0.026521876 -0.006142733 0.081909664
-0.057995275 -0.008001137 -0.02303655 0.062204245 -0.01967392 -0.078674115 0.07136331 -0.049661495
-0.033973597 0.07138678 0.060240965 0.013090496 -0.013626977 -0.10083425 -0.004758858 -0.007468447
0.049760442 0.033841074 0.04746968 -0.0018536262 -0.085783586 0.02984845 0.000505814 -0.05684517
00000000: 0728 c43c f9f8 d5bc 0917 843d 16b6 f63d
00000010: f6a6 8a3c 681d e13d a939 9e3d 9f4c 153c
00000020: 59e6 d6bd 49af a53c ccd7 9bbc c64e cdbc
00000030: 6426 9d3d b20e 133d bfcf d53c a5ed 43bd
00000040: 0a27 a53d 6c5f 5d3c cb16 7dbd 63d2 a0bd
00000050: 9b66 4e3d d15d 90bd 28bf 533d 2a6b 02bd
00000060: 1230 8ebd 20d6 12bd 2592 5e3c 676b dbbc
00000070: df20 113d e11b 803d e813 dd3c 38f1 f4bd
00000080: 933b b3bd c27c 263d 2503 873d a92d 8d3d
00000090: 78df 483d f9ac 84bc d9c6 263d 501e a73d
000000a0: 8f06 49bd b976 88bd d29d 113d 226f 91bd
000000b0: 555c c2bd 064e ba3d 1927 c73d 6a70 2c3d
000000c0: 4746 11bc f7bd fe3d 703e 45bd aed5 a5bd
000000d0: 4ccc afbd f674 a63d 5d39 c6bd e9d8 bbbd
000000e0: 5a3b 58bc f861 82bc ab95 58bd 0478 e13d
000000f0: d39d 89bb 6a44 abbd ff5b 8d3d 9a6f 47bd
00000100: 037d 253d 3593 b2bd 6f50 e8b8 d847 7dbc
00000110: 39c8 58bd 08c8 aebd d23f e2bd 1f9d 2dbd
00000120: 2c24 b43d c9f3 473c aa58 ac3d f54b 6d3c
00000130: 7ee3 65bd de9a 63bc 2801 cd3d ca4b 863d
00000140: 03ce aa3d ede9 0d3c d61c 60bd 325f 813d
00000150: e272 35bd 15ff 07bd 0e53 76bc 6a42 dfbd
00000160: 58c5 233d 2e30 c73b 9f56 5ebc d50c 213c
00000170: ecb2 ebbc da94 83bd fa0b 6dbd 0831 15bd
00000180: 410f 97bd 9e06 bf3d a5e5 d23d 5e2e 573d
00000190: c488 93b9 d8d9 9f3c 69f4 dc3d 2ba3 8b3d
000001a0: 07fe 82bd 3328 aa3c 7ba9 b4bc 09a6 5cbd
000001b0: 1cd6 11bd 99fc aebd ae7f 103d 0099 9c3d
000001c0: 725c 233b fdcc a8bc dea5 81bd f187 2cbd
000001d0: f1cb 03bd 8a43 c63d 1c5e c1bd 0b6c 393d
000001e0: d90e 6dbc 9eac 2ebb 24e0 55bc 3878 a1bd
000001f0: 607c 9abd 41de 92bd 9c5b 9a3d f21a afbd
00000200: 839a 29bc df47 e6bc 6b69 9f3d 7c36 be3d
00000210: e561 813d f27e 99bc c93e 89bd 079a 7ebc
00000220: 856c 9abc 2bff b4bc 711a e3bb 208c 393c
00000230: ce9e 2ebd 88b0 913c 9642 463c 8fad 9aba
00000240: d9ac 40bd ef8e 9ebc c7f1 a63d b558 04bb
00000250: 314f 303d c14a 093c 3450 63bc fcd5 823d
00000260: 65f2 d1bb 53bf 223d 7145 003d 0ad8 a23d
00000270: 6b17 9abd 79e4 873c a423 5cbd 985c 173c
00000280: dcb7 4dbd 3798 aebc b317 643d 1f90 78bd
00000290: c44f b7bd 8044 a5bc 9b1c 973d fcd5 7b3d
000002a0: 04bb 78bd 33b0 b23d 37c2 203d da65 6abd
000002b0: 02c0 b1bc 0f75 5c3d 058d acbc c68b 91bd
000002c0: e3e0 9dbd 6a74 ea3c 8828 c6bd d7a9 573b
000002d0: 4522 833d 072f a93d 574c e43c e820 6f3d
000002e0: b2d3 9cbd bb04 8f3d 9c81 8dbc 216b bebd
000002f0: 5820 213c 4ff3 a6bd daa6 783d cbbf 24bd
00000300: 046f 27bd 9a91 49bd af7f b7bc 16fa 44bd
00000310: 41d2 953d 5dec 883d a126 adbd d73f 43bd
00000320: c802 22bd 2ed1 493d f2bd cabc cec6 a93d
00000330: e0db 77bd 9ccd fe39 dffd aabd 96e1 033d
00000340: e099 0a3c 6157 c33c df13 b3bd 73a5 0d3c
00000350: 60da 643d f209 803b 810d 5f3d e438 313d
00000360: 164d 4b3d 23cf bdbd 1ac7 2abd 7e72 e2bc
00000370: 9654 efbc 3744 b4bd 0fc0 72bc 123b 903d
00000380: 2648 e33c 3a5b b3bd 3e54 8e3d 2658 a6bd
00000390: a6cf 9a3d 6844 d93c fb48 c9bb 41c0 a73d
000003a0: 748c 6dbd 3317 03bc 26b7 bcbc e1c9 7e3d
000003b0: 332b a1bc e51f a1bd ed26 923d da69 4bbd
000003c0: e627 0bbd 3b33 923d 3bbf 763d 8579 563c
000003d0: af43 5fbc 3082 cebd 32f0 9bbb e0b9 f4bb
000003e0: 9bd1 4b3d f09c 0a3d 916f 423d 60f5 f2ba
000003f0: 4eaf afbd bd84 f43c 9a98 043a 7bd6 68bd

fc2.bias f4 [84]
0.054995332 -0.061999146 -0.016215302 -0.076153375 -0.087388955 0.016041776 -0.044119515 -0.07332113
-0.0062866965 -0.016227897 0.0009310939 0.13009496 -0.057753406 0.008248914 -0.0384323 -0.06549436
-0.010736616 0.050473463 -0.022653425 0.0044779056 0.016643167 -0.00597488 -0.007478592 -0.07221894
-0.08531234 0.07932005 -0.015031695 -0.0018639914 0.10616585 0.055357266 0.04815597 0.093186066
0.04354919 0.13241932 0.0266271 0.09770568 -0.043841593 0.068043604 0.02357051 -0.06765108
-0.0232894 -0.049824145 -0.04281724 -0.017680496 -0.03011184 -0.05568431 -0.088626616 -0.054550428
-0.027118266 0.1345559 0.01681492 -0.06985897 0.04933797 0.07175166 -0.028883407 -0.03087855
-0.04393058 0.13444105 -0.01200441 0.009713316 0.079737395 -0.09537198 0.024368903 0.0578249
0.047005653 -0.030072354 -0.02494704 -0.01614154 0.035047032 0.023961721 -0.073504254 -0.063764386
-0.04570237 0.05247367 -0.020940213 0.0032417255 0.0044828183 -0.07918391 -0.0685773 0.07643187
0.029405845 0.011730325 -0.027792722 0.017776286
00000000: c942 613d d1f2 7dbd f4d5 84bc 4df6 9bbd
00000010: fbf8 b2bd 0b6a 833c aab6 34bd 6329 96bd
00000020: a200 cebb 5ef0 84bc a714 743a 9d37 053e
00000030: d68e 6cbd 7426 073c 306b 1dbd e821 86bd
00000040: a2e8 2fbc 43bd 4e3d ad93 b9bc 65bb 923b
00000050: 4057 883c edc8 c3bb fa0e f5bb 86e7 93bd
00000060: 3cb8 aebd 8d72 a23d 8047 76bc 2c51 f4ba
00000070: 7b6d d93d 4dbe 623d 323f 453d 56d8 be3d
00000080: a360 323d ee98 073e 1321 da3c ea19 c83d
00000090: 3e93 33bd 725a 8b3d f116 c13c a68c 8abd
000000a0: 69c9 bebc 6714 4cbd 2161 2fbd b0d6 90bc
000000b0: 1bad f6bc 3b15 64bd df81 b5bd 4570 5fbd
000000c0: 2027 debc 06c9 093e 71bf 893c 3812 8fbd
000000d0: 9c16 4a3d 89f2 923d e59c ecbc 03f5 fcbc
000000e0: 8df0 33bd eaaa 093e 25ae 44bc 9a24 1f3c
000000f0: 5c4d a33d 6252 c3bd 4ba1 c73c cdd9 6c3d
00000100: 0089 403d 4c5a f6bc bc5d ccbc 433b 84bc
00000110: 7a8d 0f3d 5f4b c43c 6689 96bd e796 82bd
00000120: 6932 3bbd a2ee 563d cf8a abbc 2173 543b
00000130: 9be4 923b 2c2b a2bd 4172 8cbd 5088 9c3d
00000140: 87e4 f03c 8d30 403c 90ad e3bc 939f 913c

fc3.weight f4 [10, 84]
0.0056572882 0.041673772 0.06186489 -0.07645393 -0.039909545 -0.2789632 -0.1321514 0.07354697
0.083146274 0.00615707 0.13582562 0.026616594 -0.03420823 -0.09666241 0.080612846 0.01933955
-0.07949405 -0.0820328 0.0038713322 0.031391095 0.32205203 -0.07302527 0.060253516 -0.17671938
-0.01789079 -0.01708395 -0.09958269 -0.012877461 -0.057607036 -0.012562603 -0.18370764 0.24334325
0.34697723 -0.26189256 0.29363304 -0.25941533 -0.047307942 0.27959654 -0.044355642 0.0037583243
-0.062119212 -0.055054627 -0.26811942 -0.12879245 0.077511966 -0.21604961 0.20563227 -0.03474324
-0.16317898 -0.067176946 -0.092320755 -0.026406758 0.43829465 -0.092894435 0.03914326 -0.29089177
0.026204301 0.16603982 0.2108403 -0.13457985 0.0038316282 0.07975427 -0.20169973 -0.31758556
-0.09674592 0.08507621 -0.040795147 -0.017264323 0.106727004 0.026832273 -0.027355094 0.074072465
-0.013019186 -0.13985197 -0.0559646 -0.09785204 0.008622758 0.0072679105 0.076348074 -0.17735206
0.006149085 0.17904617 0.06741255 0.03843331 0.14149387 0.018470066 0.2539765 0.034649726
-0.016346276 -0.24390964 0.11684793 0.055171758 -0.0722984 -0.021305151 0.058708843 0.21075892
0.043779906 -0.12537459 0.05075241 0.23103696 0.061084434 0.03551525 -0.29050648 0.01680347
-0.26835263 -0.09501086 0.15390725 0.030978141 -0.10683338 0.009458923 0.0016241956 0.07642512
0.445123 -0.20930217 -0.11780791 -0.114869885 -0.073743165 -0.0027113874 -0.101561 -0.027354
0.24809653 0.04781201 -0.04157037 0.09616822 0.018992577 -0.099555954 0.1258086 -0.24016689
0.022906916 0.015542808 0.03432101 0.09410119 -0.073499195 0.06113684 -0.035551216 -0.030056456
0.055510186 0.37397826 0.34000534 -0.15146571 0.07672119 -0.27475932 -0.3191819 0.17226604
0.09507672 0.16502213 0.09169146 0.20882381 0.030736307 -0.16905323 0.1026406 -0.14104459
0.015386776 -0.17984085 0.10603734 -0.10864012 -0.099323325 -0.08763232 -0.029903084 0.10065837
0.017087884 -0.026130414 -0.08518857 0.2708617 0.111163765 -0.12120595 0.08410616 0.30056235
0.20600994 -0.02196496 0.0620638 0.11936042 0.08995081 -0.049165532 0.39292577 0.049820807
0.35651794 0.07841725 -0.030631915 -0.21756111 0.22363713 0.012374485 0.34921172 0.18855767
-0.09315804 -0.0035363631 0.19644384 -0.07623254 0.20202368 0.027978234 -0.0428398 0.017727474
-0.010280332 -0.19816516 -0.06888639 -0.02686956 -0.12508526 0.19620663 0.07535677 -0.26089704
-0.21368581 -0.13330641 0.087121695 -0.0537593 -0.10701107 0.14091626 0.099400066 -0.111311495
-0.12651588 0.043878313 -0.08863434 0.11773118 -0.049343504 0.14301866 -0.14844243 0.11473737
0.022191452 0.08905441 -0.099936254 -0.101174526 -0.08380652 -0.033550307 -0.18467285 0.06455538
-0.0027254864 0.22836442 -0.03996325 -0.060759895 0.035595484 0.2134256 0.05502255 0.10474242
-0.0010782862 -0.15373175 -0.044790383 0.12706658 0.25617245 -0.09924918 -0.037679285 -0.09603993
-0.030921297 -0.17859568 0.092580795 0.06198267 -0.009091276 -0.100188285 -0.11530888 -0.060990006
0.026057323 -0.16793527 0.077128194 -0.025326846 -0.036944587 0.018890617 0.009488104 0.10016674
00000000: c660 b93b 1eb2 2a3d 0a66 7d3d e193 9cbd
00000010: 3178 23bd 44d4 8ebe b252 07be cb9f 963d
00000020: 9848 aa3d 3fc1 c93b df15 0b3e 0b0b da3c
00000030: ee1d 0cbd f1f6 c5bd 5918 a53d fa6d 9e3c
00000040: c7cd a2bd d000 a8bd 2db6 7d3b f393 003d
00000050: 01e4 a43e 468e 95bd 64cc 763d edf5 34be
00000060: b58f 92bc a4f3 8bbc 02f2 cbbd fcfb 52bc
00000070: 5bf5 6bbd 60d3 4dbc db1d 3cbe f92e 793e
00000080: 00a7 b13e c816 86be 1257 963e 16d2 84be
00000090: f9c5 41bd 4727 8f3e 43ae 35bd 384e 763b
000000a0: b770 7ebd f680 61bd f346 89be 2be2 03be
000000b0: 98be 9e3d 1c3c 5dbe 4491 523e ed4e 0ebd
000000c0: 6418 27be 1194 89bd aa12 bdbd fc52 d8bc
000000d0: 2868 e03e 703f bebd af54 203d c4ef 94be
000000e0: 67aa d63c 5806 2a3e 85e6 573e 4dcf 09be
000000f0: 0e1c 7b3b 3556 a33d 608a 4ebe 939a a2be
00000100: ba22 c6bd 703c ae3d d018 27bd e96d 8dbc
00000110: b093 da3d 5bcf db3c ca17 e0bc 4eb3 973d
00000120: 6d4e 55bc 5b35 0fbe 233b 65bd a666 c8bd
00000130: 7846 0d3c a727 ee3b 615c 9c3d c79b 35be
00000140: 437e c93b e157 373e 970f 8a3d 3f6c 1d3d
00000150: c5e3 103e 894e 973c 3509 823e dfec 0d3d
00000160: a0e8 85bc 73c3 79be f84d ef3d c8fb 613d
00000170: 2f11 94bd 2488 aebc af78 703d 30d1 573e
00000180: 8f52 333d 3262 00be c2e1 4f3d f494 6c3e
00000190: ac33 7a3d 7078 113d 44bd 94be 6ea7 893c
000001a0: 8465 89be 0e95 c2bd dd99 1d3e dfc5 fd3c
000001b0: 76cb dabd 99f9 1a3c f6e2 d43a c684 9c3d
000001c0: 29e7 e33e 4f53 56be 4645 f1bd e740 ebbd
000001d0: a806 97bd 88b1 31bb 37ff cfbd 7f15 e0bc
000001e0: 040d 7e3e 87d6 433d b145 2abd d8f3 c43d
000001f0: 5296 9b3c fee3 cbbd f8d3 003e 4fee 75be
00000200: 49a7 bb3c 43a7 7e3c 3094 0c3d 20b8 c03d
00000210: bf86 96bd a06a 7a3d 279e 11bd f538 f6bc
00000220: a65e 633d 147a bf3e 2e15 ae3e d419 1bbe
00000230: 0020 9d3d 41ad 8cbe cf6b a3be 8266 303e
00000240: 95b7 c23d 90fb 283e bbc8 bb3d e9d5 553e
00000250: b5ca fb3c 4a1c 2dbe 3c35 d23d fe6d 10be
00000260: d118 7c3c 3328 38be 1b2a d93d b67e debd
00000270: 076a cbbd 9378 b3bd 50f7 f4bc fa25 ce3d
00000280: e4fb 8b3c 730f d6bc 5877 aebd 62ae 8a3e
00000290: d4a9 e33d d33a f8bd da3f ac3d 4fe3 993e
000002a0: 45f4 523e dcef b3bc 9c36 7e3d 3c73 f43d
000002b0: 2138 b83d cc61 49bd 912d c93e e710 4c3d
000002c0: 8589 b63e 3999 a03d c8ef fabc 57c8 5ebe
000002d0: 2201 653e 5abe 4a3c e1cb b23e 4315 413e
000002e0: a4c9 bebd 54c2 67bb 9328 493e ce1f 9cbd
000002f0: 4cdf 4e3e 9c32 e53c c978 2fbd 3539 913c
00000300: d66e 28bc cfeb 4abe 4f14 8dbd 8d1d dcbc
00000310: 5a16 00be 64ea 483e a654 9a3d 4c94 85be
00000320: 74d0 5abe 7a81 08be dc6c b23d b632 5cbd
00000330: 9f28 dbbd 5a4c 103e 4392 cb3d 48f7 e3bd
00000340: 618d 01be bfb9 333d ec85 b5bd 0b1d f13d
00000350: 6a1c 4abd 7c73 123e 4b01 18be 6dfb ea3d
00000360: d9ca b53c 2962 b63d 61ab ccbd 9734 cfbd
00000370: c1a2 abbd 0c6c 09bd e11a 3dbe 9c35 843d
00000380: 139e 32bb 5dd8 693e 81b0 23bd 5edf 78bd
00000390: 92cc 113d 3e8c 5a3e 535f 613d 3283 d63d
000003a0: 4855 8dba db6b 1dbe 1f76 37bd be1d 023e
000003b0: 0929 833e 2743 cbbd 9855 1abd 95b0 c4bd
000003c0: a94e fdbc c9e1 36be 009b bd3d 8ae1 7d3d
000003d0: 93f3 14bc 842f cdbd 1027 ecbd a8d0 79bd
000003e0: 2b76 d53c 39f7 2bbe 63f5 9d3d 3f7a cfbc
000003f0: 3553 17bd 7fc0 9a3c fe73 1b3c 3824 cd3d

fc3.bias f4 [10]
0.060118653 0.19887973 0.089988545 0.09787743 0.007149815 0.036033858 0.024456048 -0.08171776
0.100193836 0.11680675
00000000: fa3e 763d 21a7 4b3e ea4b b83d f673 c83d
00000010: ff48 ea3b 3d98 133d 0d58 c83c a45b a7bd
00000020: 6d32 cd3d 6138 ef3d
